…
    (my_data is about 2118 exaples, while the pretrained is 8000+ )
    all pretrained data do not fit along with augmentation.
    so I use each 4th
        valloss = 0.0117
        
    the car falls off to the ground (second) road. But the bridge and steep turn are ok.
    
        Model: "sequential"
        new model: IMAGE_SIZE = (80, 320, 1)
        _________________________________________________________________
        Layer (type)                 Output Shape              Param #   
        =================================================================
        conv2d (Conv2D)              (None, 78, 318, 8)        80        
        _________________________________________________________________
        max_pooling2d (MaxPooling2D) (None, 39, 159, 8)        0         
        _________________________________________________________________
        conv2d_1 (Conv2D)            (None, 37, 157, 8)        584       
        _________________________________________________________________
        max_pooling2d_1 (MaxPooling2 (None, 18, 78, 8)         0         
        _________________________________________________________________
        dropout (Dropout)            (None, 18, 78, 8)         0         
        _________________________________________________________________
        conv2d_2 (Conv2D)            (None, 16, 76, 16)        1168      
        _________________________________________________________________
        max_pooling2d_2 (MaxPooling2 (None, 8, 38, 16)         0         
        _________________________________________________________________
        conv2d_3 (Conv2D)            (None, 6, 36, 32)         4640      
        _________________________________________________________________
        max_pooling2d_3 (MaxPooling2 (None, 3, 18, 32)         0         
        _________________________________________________________________
        conv2d_4 (Conv2D)            (None, 1, 16, 64)         18496     
        _________________________________________________________________
        dropout_1 (Dropout)          (None, 1, 16, 64)         0         
        _________________________________________________________________
        max_pooling2d_4 (MaxPooling2 (None, 1, 8, 64)          0         
        _________________________________________________________________
        flatten (Flatten)            (None, 512)               0         
        _________________________________________________________________
        dense (Dense)                (None, 32)                16416     
        _________________________________________________________________
        dense_1 (Dense)              (None, 1)                 33        
        =================================================================
        Total params: 41,417
        Trainable params: 41,417
        Non-trainable params: 0

^^ a grayscale, relatively deep model.
    -->> very long training, and val loss dropping badly.
    
discarded, now using AvgPool as before, as the first layer:

        Model: "sequential"
        _________________________________________________________________
        Layer (type)                 Output Shape              Param #   
        =================================================================
        average_pooling2d (AveragePo (None, 39, 159, 1)        0         
        _________________________________________________________________
        conv2d (Conv2D)              (None, 37, 157, 8)        80        
        _________________________________________________________________
        max_pooling2d (MaxPooling2D) (None, 18, 78, 8)         0         
        _________________________________________________________________
        dropout (Dropout)            (None, 18, 78, 8)         0         
        _________________________________________________________________
        conv2d_1 (Conv2D)            (None, 16, 76, 16)        1168      
        _________________________________________________________________
        max_pooling2d_1 (MaxPooling2 (None, 8, 38, 16)         0         
        _________________________________________________________________
        conv2d_2 (Conv2D)            (None, 6, 36, 32)         4640      
        _________________________________________________________________
        max_pooling2d_2 (MaxPooling2 (None, 3, 18, 32)         0         
        _________________________________________________________________
        conv2d_3 (Conv2D)            (None, 1, 16, 64)         18496     
        _________________________________________________________________
        dropout_1 (Dropout)          (None, 1, 16, 64)         0         
        _________________________________________________________________
        max_pooling2d_3 (MaxPooling2 (None, 1, 8, 64)          0         
        _________________________________________________________________
        flatten (Flatten)            (None, 512)               0         
        _________________________________________________________________
        dense (Dense)                (None, 32)                16416     
        _________________________________________________________________
        dense_1 (Dense)              (None, 1)                 33        
        =================================================================
        Total params: 40,833
        Trainable params: 40,833
        Non-trainable params: 0


No, here's a model that still utilizes the whole dataset in GRAY but
also aads some correction for left/right images
and added some Dense layers:

        =================================================================
        average_pooling2d (AveragePo (None, 29, 159, 1)        0         
        _________________________________________________________________
        conv2d (Conv2D)              (None, 27, 157, 8)        80        
        _________________________________________________________________
        max_pooling2d (MaxPooling2D) (None, 14, 79, 8)         0         
        _________________________________________________________________
        dropout (Dropout)            (None, 14, 79, 8)         0         
        _________________________________________________________________
        conv2d_1 (Conv2D)            (None, 12, 77, 16)        1168      
        _________________________________________________________________
        max_pooling2d_1 (MaxPooling2 (None, 6, 39, 16)         0         
        _________________________________________________________________
        conv2d_2 (Conv2D)            (None, 4, 37, 32)         4640      
        _________________________________________________________________
        max_pooling2d_2 (MaxPooling2 (None, 2, 19, 32)         0         
        _________________________________________________________________
        conv2d_3 (Conv2D)            (None, 2, 19, 64)         18496     
        _________________________________________________________________
        max_pooling2d_3 (MaxPooling2 (None, 1, 10, 64)         0         
        _________________________________________________________________
        dropout_1 (Dropout)          (None, 1, 10, 64)         0         
        _________________________________________________________________
        flatten (Flatten)            (None, 640)               0         
        _________________________________________________________________
        dense (Dense)                (None, 64)                41024     
        _________________________________________________________________
        dense_1 (Dense)              (None, 64)                4160      
        _________________________________________________________________
        dense_2 (Dense)              (None, 1)                 65        
        =================================================================
        Total params: 69,633
        Trainable params: 69,633
        Non-trainable params: 0

        2411/2411 [==============================] - 10s 4ms/step - loss: 0.0087 - val_loss: 0.0114

    ^^ checking in the field...
    
    
python video.py run1    install ffmpeg to the environment    update --fix-missing

sudo apt-get update --fix-missing
sudo apt-get install ffmpeg

Yes, the pre-recorded data does NOT include the "advanced" challenge. So if I gather more, it could be really useful
Now added my "Advanced" data to the precollected data 


        Layer (type)                 Output Shape              Param #   
        =================================================================
        average_pooling2d (AveragePo (None, 30, 160, 1)        0         
        _________________________________________________________________
        conv2d (Conv2D)              (None, 28, 158, 8)        80        
        _________________________________________________________________
        max_pooling2d (MaxPooling2D) (None, 14, 79, 8)         0         
        _________________________________________________________________
        dropout (Dropout)            (None, 14, 79, 8)         0         
        _________________________________________________________________
        conv2d_1 (Conv2D)            (None, 12, 77, 16)        1168      
        _________________________________________________________________
        max_pooling2d_1 (MaxPooling2 (None, 6, 39, 16)         0         
        _________________________________________________________________
        conv2d_2 (Conv2D)            (None, 4, 37, 32)         4640      
        _________________________________________________________________
        max_pooling2d_2 (MaxPooling2 (None, 2, 19, 32)         0         
        _________________________________________________________________
        conv2d_3 (Conv2D)            (None, 2, 19, 64)         18496     
        _________________________________________________________________
        max_pooling2d_3 (MaxPooling2 (None, 1, 10, 64)         0         
        _________________________________________________________________
        dropout_1 (Dropout)          (None, 1, 10, 64)         0         
        _________________________________________________________________
        flatten (Flatten)            (None, 640)               0         
        _________________________________________________________________
        dense (Dense)                (None, 64)                41024     
        _________________________________________________________________
        dense_1 (Dense)              (None, 64)                4160      
        _________________________________________________________________
        dense_2 (Dense)              (None, 1)                 65        
        =================================================================
        Total params: 69,633
        Trainable params: 69,633

        model = Sequential()
        model.add(AveragePooling2D(input_shape=IMAGE_SIZE, pool_size=(2, 2), strides=2, padding="valid"))
        model.add(Conv2D(8, 3, input_shape=IMAGE_SIZE, activation='relu'))
        model.add(MaxPooling2D(pool_size=(2, 2), strides=2, padding="same"))
…
        model.add(Flatten())
        model.add(Dense(64, activation='relu'))
        model.add(Dense(64, activation='relu'))
        model.add(Dense(1, activation='sigmoid'))
        
    training on batch 128, 22GB RAM occupied
    it crashes!
    
retrain using half of the ALL the available data during 50 epochs with batch 64.:

        Model: "sequential"
        _________________________________________________________________
        Layer (type)                 Output Shape              Param #   
        =================================================================
        average_pooling2d (AveragePo (None, 29, 159, 1)        0         
        _________________________________________________________________
        conv2d (Conv2D)              (None, 27, 157, 8)        80        
        _________________________________________________________________
        max_pooling2d (MaxPooling2D) (None, 14, 79, 8)         0         
        _________________________________________________________________
        dropout (Dropout)            (None, 14, 79, 8)         0         
        _________________________________________________________________
        conv2d_1 (Conv2D)            (None, 12, 77, 16)        1168      
        _________________________________________________________________
        max_pooling2d_1 (MaxPooling2 (None, 6, 39, 16)         0         
        _________________________________________________________________
        conv2d_2 (Conv2D)            (None, 4, 37, 32)         4640      
        _________________________________________________________________
        max_pooling2d_2 (MaxPooling2 (None, 2, 19, 32)         0         
        _________________________________________________________________
        conv2d_3 (Conv2D)            (None, 2, 19, 64)         18496     
        _________________________________________________________________
        max_pooling2d_3 (MaxPooling2 (None, 1, 10, 64)         0         
        _________________________________________________________________
        dropout_1 (Dropout)          (None, 1, 10, 64)         0         
        _________________________________________________________________
        flatten (Flatten)            (None, 640)               0         
        _________________________________________________________________
        dense (Dense)                (None, 64)                41024     
        _________________________________________________________________
        dense_1 (Dense)              (None, 64)                4160      
        _________________________________________________________________
        dense_2 (Dense)              (None, 1)                 65        
        =================================================================
        Total params: 69,633
        Trainable params: 69,633
        Non-trainable params: 0

        model = Sequential()
        model.add(AveragePooling2D(input_shape=IMAGE_SIZE, pool_size=(3, 3), strides=2, padding="valid"))
        model.add(Conv2D(8, 3, input_shape=IMAGE_SIZE, activation='relu'))
        model.add(MaxPooling2D(pool_size=(2, 2), strides=2, padding="same"))
…
