…
    (my_data is about 2118 exaples, while the pretrained is 8000+ )
    all pretrained data do not fit along with augmentation.
    so I use each 4th
        valloss = 0.0117
        
    the car falls off to the ground (second) road. But the bridge and steep turn are ok.
    
        Model: "sequential"
        new model: IMAGE_SIZE = (80, 320, 1)
        _________________________________________________________________
        Layer (type)                 Output Shape              Param #   
        =================================================================
        conv2d (Conv2D)              (None, 78, 318, 8)        80        
        _________________________________________________________________
        max_pooling2d (MaxPooling2D) (None, 39, 159, 8)        0         
        _________________________________________________________________
        conv2d_1 (Conv2D)            (None, 37, 157, 8)        584       
        _________________________________________________________________
        max_pooling2d_1 (MaxPooling2 (None, 18, 78, 8)         0         
        _________________________________________________________________
        dropout (Dropout)            (None, 18, 78, 8)         0         
        _________________________________________________________________
        conv2d_2 (Conv2D)            (None, 16, 76, 16)        1168      
        _________________________________________________________________
        max_pooling2d_2 (MaxPooling2 (None, 8, 38, 16)         0         
        _________________________________________________________________
        conv2d_3 (Conv2D)            (None, 6, 36, 32)         4640      
        _________________________________________________________________
        max_pooling2d_3 (MaxPooling2 (None, 3, 18, 32)         0         
        _________________________________________________________________
        conv2d_4 (Conv2D)            (None, 1, 16, 64)         18496     
        _________________________________________________________________
        dropout_1 (Dropout)          (None, 1, 16, 64)         0         
        _________________________________________________________________
        max_pooling2d_4 (MaxPooling2 (None, 1, 8, 64)          0         
        _________________________________________________________________
        flatten (Flatten)            (None, 512)               0         
        _________________________________________________________________
        dense (Dense)                (None, 32)                16416     
        _________________________________________________________________
        dense_1 (Dense)              (None, 1)                 33        
        =================================================================
        Total params: 41,417
        Trainable params: 41,417
        Non-trainable params: 0

^^ a grayscale, relatively deep model.
    -->> very long training, and val loss dropping badly.
    
discarded, now using AvgPool as before, as the first layer:

        Model: "sequential"
        _________________________________________________________________
        Layer (type)                 Output Shape              Param #   
        =================================================================
        average_pooling2d (AveragePo (None, 39, 159, 1)        0         
        _________________________________________________________________
        conv2d (Conv2D)              (None, 37, 157, 8)        80        
        _________________________________________________________________
        max_pooling2d (MaxPooling2D) (None, 18, 78, 8)         0         
        _________________________________________________________________
        dropout (Dropout)            (None, 18, 78, 8)         0         
        _________________________________________________________________
        conv2d_1 (Conv2D)            (None, 16, 76, 16)        1168      
        _________________________________________________________________
        max_pooling2d_1 (MaxPooling2 (None, 8, 38, 16)         0         
        _________________________________________________________________
        conv2d_2 (Conv2D)            (None, 6, 36, 32)         4640      
        _________________________________________________________________
        max_pooling2d_2 (MaxPooling2 (None, 3, 18, 32)         0         
        _________________________________________________________________
        conv2d_3 (Conv2D)            (None, 1, 16, 64)         18496     
        _________________________________________________________________
        dropout_1 (Dropout)          (None, 1, 16, 64)         0         
        _________________________________________________________________
        max_pooling2d_3 (MaxPooling2 (None, 1, 8, 64)          0         
        _________________________________________________________________
        flatten (Flatten)            (None, 512)               0         
        _________________________________________________________________
        dense (Dense)                (None, 32)                16416     
        _________________________________________________________________
        dense_1 (Dense)              (None, 1)                 33        
        =================================================================
        Total params: 40,833
        Trainable params: 40,833
        Non-trainable params: 0


No, here's a model that still utilizes the whole dataset in GRAY but
also aads some correction for left/right images
and added some Dense layers:

        =================================================================
        average_pooling2d (AveragePo (None, 29, 159, 1)        0         
        _________________________________________________________________
        conv2d (Conv2D)              (None, 27, 157, 8)        80        
        _________________________________________________________________
        max_pooling2d (MaxPooling2D) (None, 14, 79, 8)         0         
        _________________________________________________________________
        dropout (Dropout)            (None, 14, 79, 8)         0         
        _________________________________________________________________
        conv2d_1 (Conv2D)            (None, 12, 77, 16)        1168      
        _________________________________________________________________
        max_pooling2d_1 (MaxPooling2 (None, 6, 39, 16)         0         
        _________________________________________________________________
        conv2d_2 (Conv2D)            (None, 4, 37, 32)         4640      
        _________________________________________________________________
        max_pooling2d_2 (MaxPooling2 (None, 2, 19, 32)         0         
        _________________________________________________________________
        conv2d_3 (Conv2D)            (None, 2, 19, 64)         18496     
        _________________________________________________________________
        max_pooling2d_3 (MaxPooling2 (None, 1, 10, 64)         0         
        _________________________________________________________________
        dropout_1 (Dropout)          (None, 1, 10, 64)         0         
        _________________________________________________________________
        flatten (Flatten)            (None, 640)               0         
        _________________________________________________________________
        dense (Dense)                (None, 64)                41024     
        _________________________________________________________________
        dense_1 (Dense)              (None, 64)                4160      
        _________________________________________________________________
        dense_2 (Dense)              (None, 1)                 65        
        =================================================================
        Total params: 69,633
        Trainable params: 69,633
        Non-trainable params: 0






